…
Conv4.1             89      4       8       4       8       3   1   1   1
Conv4.2             105     4       8       4       8       3   1   1   1
Conv4.3(s2)         137     4       8       2       16      3   1   2   1

Final Receptive Field: 137x137 (>44 requirement)
Total Parameters: 196,964 (<200K requirement)


Model Parameter Count:
==========================================================================================
Layer (type:depth-idx)                   Output Shape              Param #
==========================================================================================
├─Sequential: 1-1                        [-1, 32, 16, 16]          --
|    └─Conv2d: 2-1                       [-1, 16, 32, 32]          448
|    └─BatchNorm2d: 2-2                  [-1, 16, 32, 32]          32
|    └─ReLU: 2-3                         [-1, 16, 32, 32]          --
|    └─Conv2d: 2-4                       [-1, 24, 32, 32]          3,480
|    └─BatchNorm2d: 2-5                  [-1, 24, 32, 32]          48
|    └─ReLU: 2-6                         [-1, 24, 32, 32]          --
|    └─Conv2d: 2-7                       [-1, 32, 16, 16]          6,944
|    └─BatchNorm2d: 2-8                  [-1, 32, 16, 16]          64
|    └─ReLU: 2-9                         [-1, 32, 16, 16]          --
├─Sequential: 1-2                        [-1, 64, 8, 8]            --
|    └─DepthwiseSeparableConv: 2-10      [-1, 48, 16, 16]          --
|    |    └─Conv2d: 3-1                  [-1, 32, 16, 16]          320
|    |    └─Conv2d: 3-2                  [-1, 48, 16, 16]          1,584
|    └─BatchNorm2d: 2-11                 [-1, 48, 16, 16]          96
|    └─ReLU: 2-12                        [-1, 48, 16, 16]          --
|    └─DepthwiseSeparableConv: 2-13      [-1, 48, 16, 16]          --
|    |    └─Conv2d: 3-3                  [-1, 48, 16, 16]          480
|    |    └─Conv2d: 3-4                  [-1, 48, 16, 16]          2,352
|    └─BatchNorm2d: 2-14                 [-1, 48, 16, 16]          96
|    └─ReLU: 2-15                        [-1, 48, 16, 16]          --
|    └─DepthwiseSeparableConv: 2-16      [-1, 64, 8, 8]            --
|    |    └─Conv2d: 3-5                  [-1, 48, 8, 8]            480
|    |    └─Conv2d: 3-6                  [-1, 64, 8, 8]            3,136
|    └─BatchNorm2d: 2-17                 [-1, 64, 8, 8]            128
|    └─ReLU: 2-18                        [-1, 64, 8, 8]            --
├─Sequential: 1-3                        [-1, 64, 8, 8]            --
|    └─Conv2d: 2-19                      [-1, 64, 8, 8]            9,280
|    └─BatchNorm2d: 2-20                 [-1, 64, 8, 8]            128
|    └─ReLU: 2-21                        [-1, 64, 8, 8]            --
├─Sequential: 1-4                        [-1, 64, 8, 8]            --
|    └─Conv2d: 2-22                      [-1, 64, 8, 8]            9,280
|    └─BatchNorm2d: 2-23                 [-1, 64, 8, 8]            128
|    └─ReLU: 2-24                        [-1, 64, 8, 8]            --
├─Sequential: 1-5                        [-1, 80, 4, 4]            --
|    └─Conv2d: 2-25                      [-1, 80, 4, 4]            46,160
|    └─BatchNorm2d: 2-26                 [-1, 80, 4, 4]            160
|    └─ReLU: 2-27                        [-1, 80, 4, 4]            --
├─Sequential: 1-6                        [-1, 80, 4, 4]            --
|    └─Conv2d: 2-28                      [-1, 80, 4, 4]            14,480
|    └─BatchNorm2d: 2-29                 [-1, 80, 4, 4]            160
|    └─ReLU: 2-30                        [-1, 80, 4, 4]            --
├─Sequential: 1-7                        [-1, 80, 4, 4]            --
|    └─Conv2d: 2-31                      [-1, 80, 4, 4]            14,480
|    └─BatchNorm2d: 2-32                 [-1, 80, 4, 4]            160
|    └─ReLU: 2-33                        [-1, 80, 4, 4]            --
├─Sequential: 1-8                        [-1, 96, 2, 2]            --
|    └─Conv2d: 2-34                      [-1, 96, 2, 2]            69,216
|    └─BatchNorm2d: 2-35                 [-1, 96, 2, 2]            192
|    └─ReLU: 2-36                        [-1, 96, 2, 2]            --
├─AdaptiveAvgPool2d: 1-9                 [-1, 96, 1, 1]            --
├─Dropout: 1-10                          [-1, 96, 1, 1]            --
├─Linear: 1-11                           [-1, 10]                  970
==========================================================================================
Total params: 184,482
Trainable params: 184,482
Non-trainable params: 0
Total mult-adds (M): 9.99
==========================================================================================
Input size (MB): 0.01
Forward/backward pass size (MB): 1.56
Params size (MB): 0.70
Estimated Total Size (MB): 2.27
==========================================================================================
…
